_________________________________________________________________
Layer (type)                 Output Shape              Param #   
=================================================================
inception_resnet_v2 (Model)  (None, 5, 5, 1536)        54336736  
_________________________________________________________________
flatten_1 (Flatten)          (None, 38400)             0         
_________________________________________________________________
dense_1 (Dense)              (None, 2048)              78645248  
_________________________________________________________________
dense_2 (Dense)              (None, 512)               1049088   
_________________________________________________________________
dense_3 (Dense)              (None, 4)                 2052      
=================================================================
Total params: 134,033,124
Trainable params: 79,696,388
Non-trainable params: 54,336,736
_________________________________________________________________
None
Found 728 images belonging to 4 classes.
Found 312 images belonging to 4 classes.
Epoch 1/30

  1/130 [..............................] - ETA: 54:56 - loss: 1.5023 - acc: 0.2812
…
